…
2019-03-14 06:32:36.188557: I tensorflow/core/common_runtime/gpu/gpu_device.cc:1149] Created TensorFlow device (/job:localhost/replica:0/task:0/device:GPU:0 with 5248 MB memory) -> physical GPU (device: 0, name: GeForce RTX 2060, pci bus id: 0000:01:00.0, compute capability: 7.5)
Model: "model"
__________________________________________________________________________________________________
Layer (type)                    Output Shape         Param #     Connected to                     
==================================================================================================
input_2 (InputLayer)            [(None, 128, 128, 3) 0                                            
__________________________________________________________________________________________________
input_4 (InputLayer)            [(None, 128, 128, 3) 0                                            
__________________________________________________________________________________________________
Conv1_pad_1 (ZeroPadding2D)     (None, 129, 129, 3)  0           input_2[0][0]                    
__________________________________________________________________________________________________
Conv1_pad_2 (ZeroPadding2D)     (None, 129, 129, 3)  0           input_4[0][0]                    
__________________________________________________________________________________________________
Conv1_1 (Conv2D)                (None, 64, 64, 32)   864         Conv1_pad_1[0][0]                
__________________________________________________________________________________________________
Conv1_2 (Conv2D)                (None, 64, 64, 32)   864         Conv1_pad_2[0][0]                
__________________________________________________________________________________________________
bn_Conv1_1 (BatchNormalizationV (None, 64, 64, 32)   128         Conv1_1[0][0]                    
__________________________________________________________________________________________________
bn_Conv1_2 (BatchNormalizationV (None, 64, 64, 32)   128         Conv1_2[0][0]                    
__________________________________________________________________________________________________
Conv1_relu_1 (ReLU)             (None, 64, 64, 32)   0           bn_Conv1_1[0][0]                 
__________________________________________________________________________________________________
Conv1_relu_2 (ReLU)             (None, 64, 64, 32)   0           bn_Conv1_2[0][0]                 
__________________________________________________________________________________________________
expanded_conv_depthwise_1 (Dept (None, 64, 64, 32)   288         Conv1_relu_1[0][0]               
__________________________________________________________________________________________________
expanded_conv_depthwise_2 (Dept (None, 64, 64, 32)   288         Conv1_relu_2[0][0]               
__________________________________________________________________________________________________
expanded_conv_depthwise_BN_1 (B (None, 64, 64, 32)   128         expanded_conv_depthwise_1[0][0]  
__________________________________________________________________________________________________
expanded_conv_depthwise_BN_2 (B (None, 64, 64, 32)   128         expanded_conv_depthwise_2[0][0]  
__________________________________________________________________________________________________
expanded_conv_depthwise_relu_1  (None, 64, 64, 32)   0           expanded_conv_depthwise_BN_1[0][0
__________________________________________________________________________________________________
expanded_conv_depthwise_relu_2  (None, 64, 64, 32)   0           expanded_conv_depthwise_BN_2[0][0
__________________________________________________________________________________________________
expanded_conv_project_1 (Conv2D (None, 64, 64, 16)   512         expanded_conv_depthwise_relu_1[0]
__________________________________________________________________________________________________
expanded_conv_project_2 (Conv2D (None, 64, 64, 16)   512         expanded_conv_depthwise_relu_2[0]
__________________________________________________________________________________________________
expanded_conv_project_BN_1 (Bat (None, 64, 64, 16)   64          expanded_conv_project_1[0][0]    
__________________________________________________________________________________________________
expanded_conv_project_BN_2 (Bat (None, 64, 64, 16)   64          expanded_conv_project_2[0][0]    
__________________________________________________________________________________________________
block_1_expand_1 (Conv2D)       (None, 64, 64, 96)   1536        expanded_conv_project_BN_1[0][0] 
__________________________________________________________________________________________________
block_1_expand_2 (Conv2D)       (None, 64, 64, 96)   1536        expanded_conv_project_BN_2[0][0] 
__________________________________________________________________________________________________
block_1_expand_BN_1 (BatchNorma (None, 64, 64, 96)   384         block_1_expand_1[0][0]           
__________________________________________________________________________________________________
block_1_expand_BN_2 (BatchNorma (None, 64, 64, 96)   384         block_1_expand_2[0][0]           
__________________________________________________________________________________________________
block_1_expand_relu_1 (ReLU)    (None, 64, 64, 96)   0           block_1_expand_BN_1[0][0]        
__________________________________________________________________________________________________
block_1_expand_relu_2 (ReLU)    (None, 64, 64, 96)   0           block_1_expand_BN_2[0][0]        
__________________________________________________________________________________________________
block_1_pad_1 (ZeroPadding2D)   (None, 65, 65, 96)   0           block_1_expand_relu_1[0][0]      
__________________________________________________________________________________________________
block_1_pad_2 (ZeroPadding2D)   (None, 65, 65, 96)   0           block_1_expand_relu_2[0][0]      
__________________________________________________________________________________________________
block_1_depthwise_1 (DepthwiseC (None, 32, 32, 96)   864         block_1_pad_1[0][0]              
__________________________________________________________________________________________________
block_1_depthwise_2 (DepthwiseC (None, 32, 32, 96)   864         block_1_pad_2[0][0]              
__________________________________________________________________________________________________
block_1_depthwise_BN_1 (BatchNo (None, 32, 32, 96)   384         block_1_depthwise_1[0][0]        
__________________________________________________________________________________________________
block_1_depthwise_BN_2 (BatchNo (None, 32, 32, 96)   384         block_1_depthwise_2[0][0]        
__________________________________________________________________________________________________
block_1_depthwise_relu_1 (ReLU) (None, 32, 32, 96)   0           block_1_depthwise_BN_1[0][0]     
__________________________________________________________________________________________________
block_1_depthwise_relu_2 (ReLU) (None, 32, 32, 96)   0           block_1_depthwise_BN_2[0][0]     
__________________________________________________________________________________________________
block_1_project_1 (Conv2D)      (None, 32, 32, 24)   2304        block_1_depthwise_relu_1[0][0]   
__________________________________________________________________________________________________
block_1_project_2 (Conv2D)      (None, 32, 32, 24)   2304        block_1_depthwise_relu_2[0][0]   
__________________________________________________________________________________________________
block_1_project_BN_1 (BatchNorm (None, 32, 32, 24)   96          block_1_project_1[0][0]          
__________________________________________________________________________________________________
block_1_project_BN_2 (BatchNorm (None, 32, 32, 24)   96          block_1_project_2[0][0]          
__________________________________________________________________________________________________
block_2_expand_1 (Conv2D)       (None, 32, 32, 144)  3456        block_1_project_BN_1[0][0]       
__________________________________________________________________________________________________
block_2_expand_2 (Conv2D)       (None, 32, 32, 144)  3456        block_1_project_BN_2[0][0]       
__________________________________________________________________________________________________
block_2_expand_BN_1 (BatchNorma (None, 32, 32, 144)  576         block_2_expand_1[0][0]           
__________________________________________________________________________________________________
block_2_expand_BN_2 (BatchNorma (None, 32, 32, 144)  576         block_2_expand_2[0][0]           
__________________________________________________________________________________________________
block_2_expand_relu_1 (ReLU)    (None, 32, 32, 144)  0           block_2_expand_BN_1[0][0]        
__________________________________________________________________________________________________
block_2_expand_relu_2 (ReLU)    (None, 32, 32, 144)  0           block_2_expand_BN_2[0][0]        
__________________________________________________________________________________________________
block_2_depthwise_1 (DepthwiseC (None, 32, 32, 144)  1296        block_2_expand_relu_1[0][0]      
__________________________________________________________________________________________________
block_2_depthwise_2 (DepthwiseC (None, 32, 32, 144)  1296        block_2_expand_relu_2[0][0]      
__________________________________________________________________________________________________
block_2_depthwise_BN_1 (BatchNo (None, 32, 32, 144)  576         block_2_depthwise_1[0][0]        
__________________________________________________________________________________________________
block_2_depthwise_BN_2 (BatchNo (None, 32, 32, 144)  576         block_2_depthwise_2[0][0]        
__________________________________________________________________________________________________
block_2_depthwise_relu_1 (ReLU) (None, 32, 32, 144)  0           block_2_depthwise_BN_1[0][0]     
__________________________________________________________________________________________________
block_2_depthwise_relu_2 (ReLU) (None, 32, 32, 144)  0           block_2_depthwise_BN_2[0][0]     
__________________________________________________________________________________________________
block_2_project_1 (Conv2D)      (None, 32, 32, 24)   3456        block_2_depthwise_relu_1[0][0]   
__________________________________________________________________________________________________
block_2_project_2 (Conv2D)      (None, 32, 32, 24)   3456        block_2_depthwise_relu_2[0][0]   
__________________________________________________________________________________________________
block_2_project_BN_1 (BatchNorm (None, 32, 32, 24)   96          block_2_project_1[0][0]          
__________________________________________________________________________________________________
block_2_project_BN_2 (BatchNorm (None, 32, 32, 24)   96          block_2_project_2[0][0]          
__________________________________________________________________________________________________
block_2_add_1 (Add)             (None, 32, 32, 24)   0           block_1_project_BN_1[0][0]       
                                                                 block_2_project_BN_1[0][0]       
__________________________________________________________________________________________________
block_2_add_2 (Add)             (None, 32, 32, 24)   0           block_1_project_BN_2[0][0]       
                                                                 block_2_project_BN_2[0][0]       
__________________________________________________________________________________________________
block_3_expand_1 (Conv2D)       (None, 32, 32, 144)  3456        block_2_add_1[0][0]              
__________________________________________________________________________________________________
block_3_expand_2 (Conv2D)       (None, 32, 32, 144)  3456        block_2_add_2[0][0]              
__________________________________________________________________________________________________
block_3_expand_BN_1 (BatchNorma (None, 32, 32, 144)  576         block_3_expand_1[0][0]           
__________________________________________________________________________________________________
block_3_expand_BN_2 (BatchNorma (None, 32, 32, 144)  576         block_3_expand_2[0][0]           
__________________________________________________________________________________________________
block_3_expand_relu_1 (ReLU)    (None, 32, 32, 144)  0           block_3_expand_BN_1[0][0]        
__________________________________________________________________________________________________
block_3_expand_relu_2 (ReLU)    (None, 32, 32, 144)  0           block_3_expand_BN_2[0][0]        
__________________________________________________________________________________________________
block_3_pad_1 (ZeroPadding2D)   (None, 33, 33, 144)  0           block_3_expand_relu_1[0][0]      
__________________________________________________________________________________________________
block_3_pad_2 (ZeroPadding2D)   (None, 33, 33, 144)  0           block_3_expand_relu_2[0][0]      
__________________________________________________________________________________________________
block_3_depthwise_1 (DepthwiseC (None, 16, 16, 144)  1296        block_3_pad_1[0][0]              
__________________________________________________________________________________________________
block_3_depthwise_2 (DepthwiseC (None, 16, 16, 144)  1296        block_3_pad_2[0][0]              
__________________________________________________________________________________________________
block_3_depthwise_BN_1 (BatchNo (None, 16, 16, 144)  576         block_3_depthwise_1[0][0]        
__________________________________________________________________________________________________
block_3_depthwise_BN_2 (BatchNo (None, 16, 16, 144)  576         block_3_depthwise_2[0][0]        
__________________________________________________________________________________________________
block_3_depthwise_relu_1 (ReLU) (None, 16, 16, 144)  0           block_3_depthwise_BN_1[0][0]     
__________________________________________________________________________________________________
block_3_depthwise_relu_2 (ReLU) (None, 16, 16, 144)  0           block_3_depthwise_BN_2[0][0]     
__________________________________________________________________________________________________
block_3_project_1 (Conv2D)      (None, 16, 16, 32)   4608        block_3_depthwise_relu_1[0][0]   
__________________________________________________________________________________________________
block_3_project_2 (Conv2D)      (None, 16, 16, 32)   4608        block_3_depthwise_relu_2[0][0]   
__________________________________________________________________________________________________
block_3_project_BN_1 (BatchNorm (None, 16, 16, 32)   128         block_3_project_1[0][0]          
__________________________________________________________________________________________________
block_3_project_BN_2 (BatchNorm (None, 16, 16, 32)   128         block_3_project_2[0][0]          
__________________________________________________________________________________________________
block_4_expand_1 (Conv2D)       (None, 16, 16, 192)  6144        block_3_project_BN_1[0][0]       
__________________________________________________________________________________________________
block_4_expand_2 (Conv2D)       (None, 16, 16, 192)  6144        block_3_project_BN_2[0][0]       
__________________________________________________________________________________________________
block_4_expand_BN_1 (BatchNorma (None, 16, 16, 192)  768         block_4_expand_1[0][0]           
__________________________________________________________________________________________________
block_4_expand_BN_2 (BatchNorma (None, 16, 16, 192)  768         block_4_expand_2[0][0]           
__________________________________________________________________________________________________
block_4_expand_relu_1 (ReLU)    (None, 16, 16, 192)  0           block_4_expand_BN_1[0][0]        
__________________________________________________________________________________________________
block_4_expand_relu_2 (ReLU)    (None, 16, 16, 192)  0           block_4_expand_BN_2[0][0]        
__________________________________________________________________________________________________
block_4_depthwise_1 (DepthwiseC (None, 16, 16, 192)  1728        block_4_expand_relu_1[0][0]      
__________________________________________________________________________________________________
block_4_depthwise_2 (DepthwiseC (None, 16, 16, 192)  1728        block_4_expand_relu_2[0][0]      
__________________________________________________________________________________________________
block_4_depthwise_BN_1 (BatchNo (None, 16, 16, 192)  768         block_4_depthwise_1[0][0]        
__________________________________________________________________________________________________
block_4_depthwise_BN_2 (BatchNo (None, 16, 16, 192)  768         block_4_depthwise_2[0][0]        
__________________________________________________________________________________________________
block_4_depthwise_relu_1 (ReLU) (None, 16, 16, 192)  0           block_4_depthwise_BN_1[0][0]     
__________________________________________________________________________________________________
block_4_depthwise_relu_2 (ReLU) (None, 16, 16, 192)  0           block_4_depthwise_BN_2[0][0]     
__________________________________________________________________________________________________
block_4_project_1 (Conv2D)      (None, 16, 16, 32)   6144        block_4_depthwise_relu_1[0][0]   
__________________________________________________________________________________________________
block_4_project_2 (Conv2D)      (None, 16, 16, 32)   6144        block_4_depthwise_relu_2[0][0]   
__________________________________________________________________________________________________
block_4_project_BN_1 (BatchNorm (None, 16, 16, 32)   128         block_4_project_1[0][0]          
__________________________________________________________________________________________________
block_4_project_BN_2 (BatchNorm (None, 16, 16, 32)   128         block_4_project_2[0][0]          
__________________________________________________________________________________________________
block_4_add_1 (Add)             (None, 16, 16, 32)   0           block_3_project_BN_1[0][0]       
                                                                 block_4_project_BN_1[0][0]       
__________________________________________________________________________________________________
block_4_add_2 (Add)             (None, 16, 16, 32)   0           block_3_project_BN_2[0][0]       
                                                                 block_4_project_BN_2[0][0]       
__________________________________________________________________________________________________
block_5_expand_1 (Conv2D)       (None, 16, 16, 192)  6144        block_4_add_1[0][0]              
__________________________________________________________________________________________________
block_5_expand_2 (Conv2D)       (None, 16, 16, 192)  6144        block_4_add_2[0][0]              
__________________________________________________________________________________________________
block_5_expand_BN_1 (BatchNorma (None, 16, 16, 192)  768         block_5_expand_1[0][0]           
__________________________________________________________________________________________________
block_5_expand_BN_2 (BatchNorma (None, 16, 16, 192)  768         block_5_expand_2[0][0]           
__________________________________________________________________________________________________
block_5_expand_relu_1 (ReLU)    (None, 16, 16, 192)  0           block_5_expand_BN_1[0][0]        
__________________________________________________________________________________________________
block_5_expand_relu_2 (ReLU)    (None, 16, 16, 192)  0           block_5_expand_BN_2[0][0]        
__________________________________________________________________________________________________
block_5_depthwise_1 (DepthwiseC (None, 16, 16, 192)  1728        block_5_expand_relu_1[0][0]      
__________________________________________________________________________________________________
block_5_depthwise_2 (DepthwiseC (None, 16, 16, 192)  1728        block_5_expand_relu_2[0][0]      
__________________________________________________________________________________________________
block_5_depthwise_BN_1 (BatchNo (None, 16, 16, 192)  768         block_5_depthwise_1[0][0]        
__________________________________________________________________________________________________
block_5_depthwise_BN_2 (BatchNo (None, 16, 16, 192)  768         block_5_depthwise_2[0][0]        
__________________________________________________________________________________________________
block_5_depthwise_relu_1 (ReLU) (None, 16, 16, 192)  0           block_5_depthwise_BN_1[0][0]     
__________________________________________________________________________________________________
block_5_depthwise_relu_2 (ReLU) (None, 16, 16, 192)  0           block_5_depthwise_BN_2[0][0]     
__________________________________________________________________________________________________
block_5_project_1 (Conv2D)      (None, 16, 16, 32)   6144        block_5_depthwise_relu_1[0][0]   
__________________________________________________________________________________________________
block_5_project_2 (Conv2D)      (None, 16, 16, 32)   6144        block_5_depthwise_relu_2[0][0]   
__________________________________________________________________________________________________
block_5_project_BN_1 (BatchNorm (None, 16, 16, 32)   128         block_5_project_1[0][0]          
__________________________________________________________________________________________________
block_5_project_BN_2 (BatchNorm (None, 16, 16, 32)   128         block_5_project_2[0][0]          
__________________________________________________________________________________________________
block_5_add_1 (Add)             (None, 16, 16, 32)   0           block_4_add_1[0][0]              
                                                                 block_5_project_BN_1[0][0]       
__________________________________________________________________________________________________
block_5_add_2 (Add)             (None, 16, 16, 32)   0           block_4_add_2[0][0]              
                                                                 block_5_project_BN_2[0][0]       
__________________________________________________________________________________________________
block_6_expand_1 (Conv2D)       (None, 16, 16, 192)  6144        block_5_add_1[0][0]              
__________________________________________________________________________________________________
block_6_expand_2 (Conv2D)       (None, 16, 16, 192)  6144        block_5_add_2[0][0]              
__________________________________________________________________________________________________
block_6_expand_BN_1 (BatchNorma (None, 16, 16, 192)  768         block_6_expand_1[0][0]           
__________________________________________________________________________________________________
block_6_expand_BN_2 (BatchNorma (None, 16, 16, 192)  768         block_6_expand_2[0][0]           
__________________________________________________________________________________________________
block_6_expand_relu_1 (ReLU)    (None, 16, 16, 192)  0           block_6_expand_BN_1[0][0]        
__________________________________________________________________________________________________
block_6_expand_relu_2 (ReLU)    (None, 16, 16, 192)  0           block_6_expand_BN_2[0][0]        
__________________________________________________________________________________________________
block_6_pad_1 (ZeroPadding2D)   (None, 17, 17, 192)  0           block_6_expand_relu_1[0][0]      
__________________________________________________________________________________________________
block_6_pad_2 (ZeroPadding2D)   (None, 17, 17, 192)  0           block_6_expand_relu_2[0][0]      
__________________________________________________________________________________________________
block_6_depthwise_1 (DepthwiseC (None, 8, 8, 192)    1728        block_6_pad_1[0][0]              
__________________________________________________________________________________________________
block_6_depthwise_2 (DepthwiseC (None, 8, 8, 192)    1728        block_6_pad_2[0][0]              
__________________________________________________________________________________________________
block_6_depthwise_BN_1 (BatchNo (None, 8, 8, 192)    768         block_6_depthwise_1[0][0]        
__________________________________________________________________________________________________
block_6_depthwise_BN_2 (BatchNo (None, 8, 8, 192)    768         block_6_depthwise_2[0][0]        
__________________________________________________________________________________________________
block_6_depthwise_relu_1 (ReLU) (None, 8, 8, 192)    0           block_6_depthwise_BN_1[0][0]     
__________________________________________________________________________________________________
block_6_depthwise_relu_2 (ReLU) (None, 8, 8, 192)    0           block_6_depthwise_BN_2[0][0]     
__________________________________________________________________________________________________
block_6_project_1 (Conv2D)      (None, 8, 8, 64)     12288       block_6_depthwise_relu_1[0][0]   
__________________________________________________________________________________________________
block_6_project_2 (Conv2D)      (None, 8, 8, 64)     12288       block_6_depthwise_relu_2[0][0]   
__________________________________________________________________________________________________
block_6_project_BN_1 (BatchNorm (None, 8, 8, 64)     256         block_6_project_1[0][0]          
__________________________________________________________________________________________________
block_6_project_BN_2 (BatchNorm (None, 8, 8, 64)     256         block_6_project_2[0][0]          
__________________________________________________________________________________________________
block_7_expand_1 (Conv2D)       (None, 8, 8, 384)    24576       block_6_project_BN_1[0][0]       
__________________________________________________________________________________________________
block_7_expand_2 (Conv2D)       (None, 8, 8, 384)    24576       block_6_project_BN_2[0][0]       
__________________________________________________________________________________________________
block_7_expand_BN_1 (BatchNorma (None, 8, 8, 384)    1536        block_7_expand_1[0][0]           
__________________________________________________________________________________________________
block_7_expand_BN_2 (BatchNorma (None, 8, 8, 384)    1536        block_7_expand_2[0][0]           
__________________________________________________________________________________________________
block_7_expand_relu_1 (ReLU)    (None, 8, 8, 384)    0           block_7_expand_BN_1[0][0]        
__________________________________________________________________________________________________
block_7_expand_relu_2 (ReLU)    (None, 8, 8, 384)    0           block_7_expand_BN_2[0][0]        
__________________________________________________________________________________________________
block_7_depthwise_1 (DepthwiseC (None, 8, 8, 384)    3456        block_7_expand_relu_1[0][0]      
__________________________________________________________________________________________________
block_7_depthwise_2 (DepthwiseC (None, 8, 8, 384)    3456        block_7_expand_relu_2[0][0]      
__________________________________________________________________________________________________
block_7_depthwise_BN_1 (BatchNo (None, 8, 8, 384)    1536        block_7_depthwise_1[0][0]        
__________________________________________________________________________________________________
block_7_depthwise_BN_2 (BatchNo (None, 8, 8, 384)    1536        block_7_depthwise_2[0][0]        
__________________________________________________________________________________________________
block_7_depthwise_relu_1 (ReLU) (None, 8, 8, 384)    0           block_7_depthwise_BN_1[0][0]     
__________________________________________________________________________________________________
block_7_depthwise_relu_2 (ReLU) (None, 8, 8, 384)    0           block_7_depthwise_BN_2[0][0]     
__________________________________________________________________________________________________
block_7_project_1 (Conv2D)      (None, 8, 8, 64)     24576       block_7_depthwise_relu_1[0][0]   
__________________________________________________________________________________________________
block_7_project_2 (Conv2D)      (None, 8, 8, 64)     24576       block_7_depthwise_relu_2[0][0]   
__________________________________________________________________________________________________
block_7_project_BN_1 (BatchNorm (None, 8, 8, 64)     256         block_7_project_1[0][0]          
__________________________________________________________________________________________________
block_7_project_BN_2 (BatchNorm (None, 8, 8, 64)     256         block_7_project_2[0][0]          
__________________________________________________________________________________________________
block_7_add_1 (Add)             (None, 8, 8, 64)     0           block_6_project_BN_1[0][0]       
                                                                 block_7_project_BN_1[0][0]       
__________________________________________________________________________________________________
block_7_add_2 (Add)             (None, 8, 8, 64)     0           block_6_project_BN_2[0][0]       
                                                                 block_7_project_BN_2[0][0]       
__________________________________________________________________________________________________
block_8_expand_1 (Conv2D)       (None, 8, 8, 384)    24576       block_7_add_1[0][0]              
__________________________________________________________________________________________________
block_8_expand_2 (Conv2D)       (None, 8, 8, 384)    24576       block_7_add_2[0][0]              
__________________________________________________________________________________________________
block_8_expand_BN_1 (BatchNorma (None, 8, 8, 384)    1536        block_8_expand_1[0][0]           
__________________________________________________________________________________________________
block_8_expand_BN_2 (BatchNorma (None, 8, 8, 384)    1536        block_8_expand_2[0][0]           
__________________________________________________________________________________________________
block_8_expand_relu_1 (ReLU)    (None, 8, 8, 384)    0           block_8_expand_BN_1[0][0]        
__________________________________________________________________________________________________
block_8_expand_relu_2 (ReLU)    (None, 8, 8, 384)    0           block_8_expand_BN_2[0][0]        
__________________________________________________________________________________________________
block_8_depthwise_1 (DepthwiseC (None, 8, 8, 384)    3456        block_8_expand_relu_1[0][0]      
__________________________________________________________________________________________________
block_8_depthwise_2 (DepthwiseC (None, 8, 8, 384)    3456        block_8_expand_relu_2[0][0]      
__________________________________________________________________________________________________
block_8_depthwise_BN_1 (BatchNo (None, 8, 8, 384)    1536        block_8_depthwise_1[0][0]        
__________________________________________________________________________________________________
block_8_depthwise_BN_2 (BatchNo (None, 8, 8, 384)    1536        block_8_depthwise_2[0][0]        
__________________________________________________________________________________________________
block_8_depthwise_relu_1 (ReLU) (None, 8, 8, 384)    0           block_8_depthwise_BN_1[0][0]     
__________________________________________________________________________________________________
block_8_depthwise_relu_2 (ReLU) (None, 8, 8, 384)    0           block_8_depthwise_BN_2[0][0]     
__________________________________________________________________________________________________
block_8_project_1 (Conv2D)      (None, 8, 8, 64)     24576       block_8_depthwise_relu_1[0][0]   
__________________________________________________________________________________________________
block_8_project_2 (Conv2D)      (None, 8, 8, 64)     24576       block_8_depthwise_relu_2[0][0]   
__________________________________________________________________________________________________
block_8_project_BN_1 (BatchNorm (None, 8, 8, 64)     256         block_8_project_1[0][0]          
__________________________________________________________________________________________________
block_8_project_BN_2 (BatchNorm (None, 8, 8, 64)     256         block_8_project_2[0][0]          
__________________________________________________________________________________________________
block_8_add_1 (Add)             (None, 8, 8, 64)     0           block_7_add_1[0][0]              
                                                                 block_8_project_BN_1[0][0]       
__________________________________________________________________________________________________
block_8_add_2 (Add)             (None, 8, 8, 64)     0           block_7_add_2[0][0]              
                                                                 block_8_project_BN_2[0][0]       
__________________________________________________________________________________________________
block_9_expand_1 (Conv2D)       (None, 8, 8, 384)    24576       block_8_add_1[0][0]              
__________________________________________________________________________________________________
block_9_expand_2 (Conv2D)       (None, 8, 8, 384)    24576       block_8_add_2[0][0]              
__________________________________________________________________________________________________
block_9_expand_BN_1 (BatchNorma (None, 8, 8, 384)    1536        block_9_expand_1[0][0]           
__________________________________________________________________________________________________
block_9_expand_BN_2 (BatchNorma (None, 8, 8, 384)    1536        block_9_expand_2[0][0]           
__________________________________________________________________________________________________
block_9_expand_relu_1 (ReLU)    (None, 8, 8, 384)    0           block_9_expand_BN_1[0][0]        
__________________________________________________________________________________________________
block_9_expand_relu_2 (ReLU)    (None, 8, 8, 384)    0           block_9_expand_BN_2[0][0]        
__________________________________________________________________________________________________
block_9_depthwise_1 (DepthwiseC (None, 8, 8, 384)    3456        block_9_expand_relu_1[0][0]      
__________________________________________________________________________________________________
block_9_depthwise_2 (DepthwiseC (None, 8, 8, 384)    3456        block_9_expand_relu_2[0][0]      
__________________________________________________________________________________________________
block_9_depthwise_BN_1 (BatchNo (None, 8, 8, 384)    1536        block_9_depthwise_1[0][0]        
__________________________________________________________________________________________________
block_9_depthwise_BN_2 (BatchNo (None, 8, 8, 384)    1536        block_9_depthwise_2[0][0]        
__________________________________________________________________________________________________
block_9_depthwise_relu_1 (ReLU) (None, 8, 8, 384)    0           block_9_depthwise_BN_1[0][0]     
__________________________________________________________________________________________________
block_9_depthwise_relu_2 (ReLU) (None, 8, 8, 384)    0           block_9_depthwise_BN_2[0][0]     
__________________________________________________________________________________________________
block_9_project_1 (Conv2D)      (None, 8, 8, 64)     24576       block_9_depthwise_relu_1[0][0]   
__________________________________________________________________________________________________
block_9_project_2 (Conv2D)      (None, 8, 8, 64)     24576       block_9_depthwise_relu_2[0][0]   
__________________________________________________________________________________________________
block_9_project_BN_1 (BatchNorm (None, 8, 8, 64)     256         block_9_project_1[0][0]          
__________________________________________________________________________________________________
block_9_project_BN_2 (BatchNorm (None, 8, 8, 64)     256         block_9_project_2[0][0]          
__________________________________________________________________________________________________
block_9_add_1 (Add)             (None, 8, 8, 64)     0           block_8_add_1[0][0]              
                                                                 block_9_project_BN_1[0][0]       
__________________________________________________________________________________________________
block_9_add_2 (Add)             (None, 8, 8, 64)     0           block_8_add_2[0][0]              
                                                                 block_9_project_BN_2[0][0]       
__________________________________________________________________________________________________
block_10_expand_1 (Conv2D)      (None, 8, 8, 384)    24576       block_9_add_1[0][0]              
__________________________________________________________________________________________________
block_10_expand_2 (Conv2D)      (None, 8, 8, 384)    24576       block_9_add_2[0][0]              
__________________________________________________________________________________________________
block_10_expand_BN_1 (BatchNorm (None, 8, 8, 384)    1536        block_10_expand_1[0][0]          
__________________________________________________________________________________________________
block_10_expand_BN_2 (BatchNorm (None, 8, 8, 384)    1536        block_10_expand_2[0][0]          
__________________________________________________________________________________________________
block_10_expand_relu_1 (ReLU)   (None, 8, 8, 384)    0           block_10_expand_BN_1[0][0]       
__________________________________________________________________________________________________
block_10_expand_relu_2 (ReLU)   (None, 8, 8, 384)    0           block_10_expand_BN_2[0][0]       
__________________________________________________________________________________________________
block_10_depthwise_1 (Depthwise (None, 8, 8, 384)    3456        block_10_expand_relu_1[0][0]     
__________________________________________________________________________________________________
block_10_depthwise_2 (Depthwise (None, 8, 8, 384)    3456        block_10_expand_relu_2[0][0]     
__________________________________________________________________________________________________
block_10_depthwise_BN_1 (BatchN (None, 8, 8, 384)    1536        block_10_depthwise_1[0][0]       
__________________________________________________________________________________________________
block_10_depthwise_BN_2 (BatchN (None, 8, 8, 384)    1536        block_10_depthwise_2[0][0]       
__________________________________________________________________________________________________
block_10_depthwise_relu_1 (ReLU (None, 8, 8, 384)    0           block_10_depthwise_BN_1[0][0]    
__________________________________________________________________________________________________
block_10_depthwise_relu_2 (ReLU (None, 8, 8, 384)    0           block_10_depthwise_BN_2[0][0]    
__________________________________________________________________________________________________
block_10_project_1 (Conv2D)     (None, 8, 8, 96)     36864       block_10_depthwise_relu_1[0][0]  
__________________________________________________________________________________________________
block_10_project_2 (Conv2D)     (None, 8, 8, 96)     36864       block_10_depthwise_relu_2[0][0]  
__________________________________________________________________________________________________
block_10_project_BN_1 (BatchNor (None, 8, 8, 96)     384         block_10_project_1[0][0]         
__________________________________________________________________________________________________
block_10_project_BN_2 (BatchNor (None, 8, 8, 96)     384         block_10_project_2[0][0]         
__________________________________________________________________________________________________
block_11_expand_1 (Conv2D)      (None, 8, 8, 576)    55296       block_10_project_BN_1[0][0]      
__________________________________________________________________________________________________
block_11_expand_2 (Conv2D)      (None, 8, 8, 576)    55296       block_10_project_BN_2[0][0]      
__________________________________________________________________________________________________
block_11_expand_BN_1 (BatchNorm (None, 8, 8, 576)    2304        block_11_expand_1[0][0]          
__________________________________________________________________________________________________
block_11_expand_BN_2 (BatchNorm (None, 8, 8, 576)    2304        block_11_expand_2[0][0]          
__________________________________________________________________________________________________
block_11_expand_relu_1 (ReLU)   (None, 8, 8, 576)    0           block_11_expand_BN_1[0][0]       
__________________________________________________________________________________________________
block_11_expand_relu_2 (ReLU)   (None, 8, 8, 576)    0           block_11_expand_BN_2[0][0]       
__________________________________________________________________________________________________
block_11_depthwise_1 (Depthwise (None, 8, 8, 576)    5184        block_11_expand_relu_1[0][0]     
__________________________________________________________________________________________________
block_11_depthwise_2 (Depthwise (None, 8, 8, 576)    5184        block_11_expand_relu_2[0][0]     
__________________________________________________________________________________________________
block_11_depthwise_BN_1 (BatchN (None, 8, 8, 576)    2304        block_11_depthwise_1[0][0]       
__________________________________________________________________________________________________
block_11_depthwise_BN_2 (BatchN (None, 8, 8, 576)    2304        block_11_depthwise_2[0][0]       
__________________________________________________________________________________________________
block_11_depthwise_relu_1 (ReLU (None, 8, 8, 576)    0           block_11_depthwise_BN_1[0][0]    
__________________________________________________________________________________________________
block_11_depthwise_relu_2 (ReLU (None, 8, 8, 576)    0           block_11_depthwise_BN_2[0][0]    
__________________________________________________________________________________________________
block_11_project_1 (Conv2D)     (None, 8, 8, 96)     55296       block_11_depthwise_relu_1[0][0]  
__________________________________________________________________________________________________
block_11_project_2 (Conv2D)     (None, 8, 8, 96)     55296       block_11_depthwise_relu_2[0][0]  
__________________________________________________________________________________________________
block_11_project_BN_1 (BatchNor (None, 8, 8, 96)     384         block_11_project_1[0][0]         
__________________________________________________________________________________________________
block_11_project_BN_2 (BatchNor (None, 8, 8, 96)     384         block_11_project_2[0][0]         
__________________________________________________________________________________________________
block_11_add_1 (Add)            (None, 8, 8, 96)     0           block_10_project_BN_1[0][0]      
                                                                 block_11_project_BN_1[0][0]      
__________________________________________________________________________________________________
block_11_add_2 (Add)            (None, 8, 8, 96)     0           block_10_project_BN_2[0][0]      
                                                                 block_11_project_BN_2[0][0]      
__________________________________________________________________________________________________
block_12_expand_1 (Conv2D)      (None, 8, 8, 576)    55296       block_11_add_1[0][0]             
__________________________________________________________________________________________________
block_12_expand_2 (Conv2D)      (None, 8, 8, 576)    55296       block_11_add_2[0][0]             
__________________________________________________________________________________________________
block_12_expand_BN_1 (BatchNorm (None, 8, 8, 576)    2304        block_12_expand_1[0][0]          
__________________________________________________________________________________________________
block_12_expand_BN_2 (BatchNorm (None, 8, 8, 576)    2304        block_12_expand_2[0][0]          
__________________________________________________________________________________________________
block_12_expand_relu_1 (ReLU)   (None, 8, 8, 576)    0           block_12_expand_BN_1[0][0]       
__________________________________________________________________________________________________
block_12_expand_relu_2 (ReLU)   (None, 8, 8, 576)    0           block_12_expand_BN_2[0][0]       
__________________________________________________________________________________________________
block_12_depthwise_1 (Depthwise (None, 8, 8, 576)    5184        block_12_expand_relu_1[0][0]     
__________________________________________________________________________________________________
block_12_depthwise_2 (Depthwise (None, 8, 8, 576)    5184        block_12_expand_relu_2[0][0]     
__________________________________________________________________________________________________
block_12_depthwise_BN_1 (BatchN (None, 8, 8, 576)    2304        block_12_depthwise_1[0][0]       
__________________________________________________________________________________________________
block_12_depthwise_BN_2 (BatchN (None, 8, 8, 576)    2304        block_12_depthwise_2[0][0]       
__________________________________________________________________________________________________
block_12_depthwise_relu_1 (ReLU (None, 8, 8, 576)    0           block_12_depthwise_BN_1[0][0]    
__________________________________________________________________________________________________
block_12_depthwise_relu_2 (ReLU (None, 8, 8, 576)    0           block_12_depthwise_BN_2[0][0]    
__________________________________________________________________________________________________
block_12_project_1 (Conv2D)     (None, 8, 8, 96)     55296       block_12_depthwise_relu_1[0][0]  
__________________________________________________________________________________________________
block_12_project_2 (Conv2D)     (None, 8, 8, 96)     55296       block_12_depthwise_relu_2[0][0]  
__________________________________________________________________________________________________
block_12_project_BN_1 (BatchNor (None, 8, 8, 96)     384         block_12_project_1[0][0]         
__________________________________________________________________________________________________
block_12_project_BN_2 (BatchNor (None, 8, 8, 96)     384         block_12_project_2[0][0]         
__________________________________________________________________________________________________
block_12_add_1 (Add)            (None, 8, 8, 96)     0           block_11_add_1[0][0]             
                                                                 block_12_project_BN_1[0][0]      
__________________________________________________________________________________________________
block_12_add_2 (Add)            (None, 8, 8, 96)     0           block_11_add_2[0][0]             
                                                                 block_12_project_BN_2[0][0]      
__________________________________________________________________________________________________
block_13_expand_1 (Conv2D)      (None, 8, 8, 576)    55296       block_12_add_1[0][0]             
__________________________________________________________________________________________________
block_13_expand_2 (Conv2D)      (None, 8, 8, 576)    55296       block_12_add_2[0][0]             
__________________________________________________________________________________________________
block_13_expand_BN_1 (BatchNorm (None, 8, 8, 576)    2304        block_13_expand_1[0][0]          
__________________________________________________________________________________________________
block_13_expand_BN_2 (BatchNorm (None, 8, 8, 576)    2304        block_13_expand_2[0][0]          
__________________________________________________________________________________________________
block_13_expand_relu_1 (ReLU)   (None, 8, 8, 576)    0           block_13_expand_BN_1[0][0]       
__________________________________________________________________________________________________
block_13_expand_relu_2 (ReLU)   (None, 8, 8, 576)    0           block_13_expand_BN_2[0][0]       
__________________________________________________________________________________________________
block_13_pad_1 (ZeroPadding2D)  (None, 9, 9, 576)    0           block_13_expand_relu_1[0][0]     
__________________________________________________________________________________________________
block_13_pad_2 (ZeroPadding2D)  (None, 9, 9, 576)    0           block_13_expand_relu_2[0][0]     
__________________________________________________________________________________________________
block_13_depthwise_1 (Depthwise (None, 4, 4, 576)    5184        block_13_pad_1[0][0]             
__________________________________________________________________________________________________
block_13_depthwise_2 (Depthwise (None, 4, 4, 576)    5184        block_13_pad_2[0][0]             
__________________________________________________________________________________________________
block_13_depthwise_BN_1 (BatchN (None, 4, 4, 576)    2304        block_13_depthwise_1[0][0]       
__________________________________________________________________________________________________
block_13_depthwise_BN_2 (BatchN (None, 4, 4, 576)    2304        block_13_depthwise_2[0][0]       
__________________________________________________________________________________________________
block_13_depthwise_relu_1 (ReLU (None, 4, 4, 576)    0           block_13_depthwise_BN_1[0][0]    
__________________________________________________________________________________________________
block_13_depthwise_relu_2 (ReLU (None, 4, 4, 576)    0           block_13_depthwise_BN_2[0][0]    
__________________________________________________________________________________________________
block_13_project_1 (Conv2D)     (None, 4, 4, 160)    92160       block_13_depthwise_relu_1[0][0]  
__________________________________________________________________________________________________
block_13_project_2 (Conv2D)     (None, 4, 4, 160)    92160       block_13_depthwise_relu_2[0][0]  
__________________________________________________________________________________________________
block_13_project_BN_1 (BatchNor (None, 4, 4, 160)    640         block_13_project_1[0][0]         
__________________________________________________________________________________________________
block_13_project_BN_2 (BatchNor (None, 4, 4, 160)    640         block_13_project_2[0][0]         
__________________________________________________________________________________________________
block_14_expand_1 (Conv2D)      (None, 4, 4, 960)    153600      block_13_project_BN_1[0][0]      
__________________________________________________________________________________________________
block_14_expand_2 (Conv2D)      (None, 4, 4, 960)    153600      block_13_project_BN_2[0][0]      
__________________________________________________________________________________________________
block_14_expand_BN_1 (BatchNorm (None, 4, 4, 960)    3840        block_14_expand_1[0][0]          
__________________________________________________________________________________________________
block_14_expand_BN_2 (BatchNorm (None, 4, 4, 960)    3840        block_14_expand_2[0][0]          
__________________________________________________________________________________________________
block_14_expand_relu_1 (ReLU)   (None, 4, 4, 960)    0           block_14_expand_BN_1[0][0]       
__________________________________________________________________________________________________
block_14_expand_relu_2 (ReLU)   (None, 4, 4, 960)    0           block_14_expand_BN_2[0][0]       
__________________________________________________________________________________________________
block_14_depthwise_1 (Depthwise (None, 4, 4, 960)    8640        block_14_expand_relu_1[0][0]     
__________________________________________________________________________________________________
block_14_depthwise_2 (Depthwise (None, 4, 4, 960)    8640        block_14_expand_relu_2[0][0]     
__________________________________________________________________________________________________
block_14_depthwise_BN_1 (BatchN (None, 4, 4, 960)    3840        block_14_depthwise_1[0][0]       
__________________________________________________________________________________________________
block_14_depthwise_BN_2 (BatchN (None, 4, 4, 960)    3840        block_14_depthwise_2[0][0]       
__________________________________________________________________________________________________
block_14_depthwise_relu_1 (ReLU (None, 4, 4, 960)    0           block_14_depthwise_BN_1[0][0]    
__________________________________________________________________________________________________
block_14_depthwise_relu_2 (ReLU (None, 4, 4, 960)    0           block_14_depthwise_BN_2[0][0]    
__________________________________________________________________________________________________
block_14_project_1 (Conv2D)     (None, 4, 4, 160)    153600      block_14_depthwise_relu_1[0][0]  
__________________________________________________________________________________________________
block_14_project_2 (Conv2D)     (None, 4, 4, 160)    153600      block_14_depthwise_relu_2[0][0]  
__________________________________________________________________________________________________
block_14_project_BN_1 (BatchNor (None, 4, 4, 160)    640         block_14_project_1[0][0]         
__________________________________________________________________________________________________
block_14_project_BN_2 (BatchNor (None, 4, 4, 160)    640         block_14_project_2[0][0]         
__________________________________________________________________________________________________
block_14_add_1 (Add)            (None, 4, 4, 160)    0           block_13_project_BN_1[0][0]      
                                                                 block_14_project_BN_1[0][0]      
__________________________________________________________________________________________________
block_14_add_2 (Add)            (None, 4, 4, 160)    0           block_13_project_BN_2[0][0]      
                                                                 block_14_project_BN_2[0][0]      
__________________________________________________________________________________________________
block_15_expand_1 (Conv2D)      (None, 4, 4, 960)    153600      block_14_add_1[0][0]             
__________________________________________________________________________________________________
block_15_expand_2 (Conv2D)      (None, 4, 4, 960)    153600      block_14_add_2[0][0]             
__________________________________________________________________________________________________
block_15_expand_BN_1 (BatchNorm (None, 4, 4, 960)    3840        block_15_expand_1[0][0]          
__________________________________________________________________________________________________
block_15_expand_BN_2 (BatchNorm (None, 4, 4, 960)    3840        block_15_expand_2[0][0]          
__________________________________________________________________________________________________
block_15_expand_relu_1 (ReLU)   (None, 4, 4, 960)    0           block_15_expand_BN_1[0][0]       
__________________________________________________________________________________________________
block_15_expand_relu_2 (ReLU)   (None, 4, 4, 960)    0           block_15_expand_BN_2[0][0]       
__________________________________________________________________________________________________
block_15_depthwise_1 (Depthwise (None, 4, 4, 960)    8640        block_15_expand_relu_1[0][0]     
__________________________________________________________________________________________________
block_15_depthwise_2 (Depthwise (None, 4, 4, 960)    8640        block_15_expand_relu_2[0][0]     
__________________________________________________________________________________________________
block_15_depthwise_BN_1 (BatchN (None, 4, 4, 960)    3840        block_15_depthwise_1[0][0]       
__________________________________________________________________________________________________
block_15_depthwise_BN_2 (BatchN (None, 4, 4, 960)    3840        block_15_depthwise_2[0][0]       
__________________________________________________________________________________________________
block_15_depthwise_relu_1 (ReLU (None, 4, 4, 960)    0           block_15_depthwise_BN_1[0][0]    
__________________________________________________________________________________________________
block_15_depthwise_relu_2 (ReLU (None, 4, 4, 960)    0           block_15_depthwise_BN_2[0][0]    
__________________________________________________________________________________________________
block_15_project_1 (Conv2D)     (None, 4, 4, 160)    153600      block_15_depthwise_relu_1[0][0]  
__________________________________________________________________________________________________
block_15_project_2 (Conv2D)     (None, 4, 4, 160)    153600      block_15_depthwise_relu_2[0][0]  
__________________________________________________________________________________________________
block_15_project_BN_1 (BatchNor (None, 4, 4, 160)    640         block_15_project_1[0][0]         
__________________________________________________________________________________________________
block_15_project_BN_2 (BatchNor (None, 4, 4, 160)    640         block_15_project_2[0][0]         
__________________________________________________________________________________________________
block_15_add_1 (Add)            (None, 4, 4, 160)    0           block_14_add_1[0][0]             
                                                                 block_15_project_BN_1[0][0]      
__________________________________________________________________________________________________
block_15_add_2 (Add)            (None, 4, 4, 160)    0           block_14_add_2[0][0]             
                                                                 block_15_project_BN_2[0][0]      
__________________________________________________________________________________________________
block_16_expand_1 (Conv2D)      (None, 4, 4, 960)    153600      block_15_add_1[0][0]             
__________________________________________________________________________________________________
block_16_expand_2 (Conv2D)      (None, 4, 4, 960)    153600      block_15_add_2[0][0]             
__________________________________________________________________________________________________
block_16_expand_BN_1 (BatchNorm (None, 4, 4, 960)    3840        block_16_expand_1[0][0]          
__________________________________________________________________________________________________
block_16_expand_BN_2 (BatchNorm (None, 4, 4, 960)    3840        block_16_expand_2[0][0]          
__________________________________________________________________________________________________
block_16_expand_relu_1 (ReLU)   (None, 4, 4, 960)    0           block_16_expand_BN_1[0][0]       
__________________________________________________________________________________________________
block_16_expand_relu_2 (ReLU)   (None, 4, 4, 960)    0           block_16_expand_BN_2[0][0]       
__________________________________________________________________________________________________
block_16_depthwise_1 (Depthwise (None, 4, 4, 960)    8640        block_16_expand_relu_1[0][0]     
__________________________________________________________________________________________________
block_16_depthwise_2 (Depthwise (None, 4, 4, 960)    8640        block_16_expand_relu_2[0][0]     
__________________________________________________________________________________________________
block_16_depthwise_BN_1 (BatchN (None, 4, 4, 960)    3840        block_16_depthwise_1[0][0]       
__________________________________________________________________________________________________
block_16_depthwise_BN_2 (BatchN (None, 4, 4, 960)    3840        block_16_depthwise_2[0][0]       
__________________________________________________________________________________________________
block_16_depthwise_relu_1 (ReLU (None, 4, 4, 960)    0           block_16_depthwise_BN_1[0][0]    
__________________________________________________________________________________________________
block_16_depthwise_relu_2 (ReLU (None, 4, 4, 960)    0           block_16_depthwise_BN_2[0][0]    
__________________________________________________________________________________________________
block_16_project_1 (Conv2D)     (None, 4, 4, 320)    307200      block_16_depthwise_relu_1[0][0]  
__________________________________________________________________________________________________
block_16_project_2 (Conv2D)     (None, 4, 4, 320)    307200      block_16_depthwise_relu_2[0][0]  
__________________________________________________________________________________________________
block_16_project_BN_1 (BatchNor (None, 4, 4, 320)    1280        block_16_project_1[0][0]         
__________________________________________________________________________________________________
block_16_project_BN_2 (BatchNor (None, 4, 4, 320)    1280        block_16_project_2[0][0]         
__________________________________________________________________________________________________
Conv_1_1 (Conv2D)               (None, 4, 4, 1280)   409600      block_16_project_BN_1[0][0]      
__________________________________________________________________________________________________
Conv_1_2 (Conv2D)               (None, 4, 4, 1280)   409600      block_16_project_BN_2[0][0]      
__________________________________________________________________________________________________
Conv_1_bn_1 (BatchNormalization (None, 4, 4, 1280)   5120        Conv_1_1[0][0]                   
__________________________________________________________________________________________________
Conv_1_bn_2 (BatchNormalization (None, 4, 4, 1280)   5120        Conv_1_2[0][0]                   
__________________________________________________________________________________________________
out_relu_1 (ReLU)               (None, 4, 4, 1280)   0           Conv_1_bn_1[0][0]                
__________________________________________________________________________________________________
out_relu_2 (ReLU)               (None, 4, 4, 1280)   0           Conv_1_bn_2[0][0]                
__________________________________________________________________________________________________
flatten (Flatten)               (None, 20480)        0           out_relu_1[0][0]                 
__________________________________________________________________________________________________
flatten_1 (Flatten)             (None, 20480)        0           out_relu_2[0][0]                 
__________________________________________________________________________________________________
concatenate (Concatenate)       (None, 40960)        0           flatten[0][0]                    
                                                                 flatten_1[0][0]                  
__________________________________________________________________________________________________
fc2_2 (Dense)                   (None, 8)            327688      concatenate[0][0]                
__________________________________________________________________________________________________
dropout (Dropout)               (None, 8)            0           fc2_2[0][0]                      
__________________________________________________________________________________________________
fc1_2 (Dense)                   (None, 8)            72          dropout[0][0]                    
__________________________________________________________________________________________________
dropout_1 (Dropout)             (None, 8)            0           fc1_2[0][0]                      
==================================================================================================
Total params: 4,843,728
Trainable params: 327,760
Non-trainable params: 4,515,968
__________________________________________________________________________________________________
None
------------- Training -------------
40670
8134
epochs: 98
epochs per stage: 24
…
